prac/2回目/data/lstm_googletrend.pth (torch, 71573 bytes, 5 tensors)

lstm.weight_ih_l0 f4 [256, 1]
-0.03123098 -0.039133463 0.1275967 0.11091603 0.108537056 0.044859506 0.03915909 0.10461338
-0.058694962 -0.015609303 0.0029504418 0.090058915 0.010786144 0.16243011 6.695503e-05 0.044309765
0.11037223 -0.043587826 0.12196859 0.11438687 0.050491653 0.1283813 -0.0063808453 0.040600717
-0.033967577 0.022028025 0.0035943936 0.027948998 0.11365797 -0.038083866 0.014585328 0.11107189
-0.10479814 0.016114287 0.12246405 0.0024504778 -0.021630058 -0.05625152 0.049716033 0.029473571
0.023706155 -0.1712183 0.024453836 0.09853175 0.062054005 0.112991214 0.0064415126 0.014923224
0.033462893 -0.1079969 0.09785542 -0.1629471 0.08687483 0.13409266 -0.052878845 0.17247482
0.14326848 0.119342424 0.026681617 0.12986414 0.0018872833 -0.06708119 0.08078436 -0.041355114
0.04718009 0.12771559 0.088253126 -0.051052332 0.08290412 -0.049374923 0.046269674 0.0010267086
0.0116196405 0.16582474 0.06945817 -0.099498205 0.1598537 0.0011620212 -0.057480738 0.019730471
-0.047000527 0.06137426 -0.0748994 0.025423747 0.015604292 0.03611583 -0.07429062 -0.07444733
0.057010878 0.026616901 0.003984068 0.11246561 0.086473785 0.017838115 -0.05136214 0.07717917
0.009473345 -0.023673007 0.07364944 0.15409654 -0.03792804 0.075176984 -0.046336163 0.043266777
-0.07554438 -0.17999531 0.056623667 -0.01321456 0.15152149 0.08381342 -0.05348228 -0.0201904
-0.0009856644 -0.09376612 0.1374743 -0.1587281 -0.06760574 0.025851864 0.015750078 -0.024210071
0.04897649 0.080754206 0.12623335 -0.021985868 -0.12075701 0.07526291 0.12617847 0.013141742
0.07357558 -0.16243972 -0.12514113 0.10002766 -0.104024224 0.06784714 0.1672455 0.15077265
-0.15893403 0.16250344 -0.107656196 -0.09859252 0.13742141 -0.17738502 0.19116792 -0.05683325
-0.10309592 0.06663984 -0.09667909 -0.11979806 0.066263445 -0.100606844 -0.15803085 0.040383518
0.06364312 0.14204292 -0.124587074 0.15046868 0.16523223 0.10784797 0.11291817 0.00063342706
-0.17483787 0.10787165 -0.091521464 -0.05729918 -0.19145001 0.101886325 0.1059121 -0.065672584
0.13018622 -0.05890827 -0.13560964 0.074527286 0.023190472 -0.15951185 -0.11827017 -0.067776635
-0.1296893 0.03333955 -0.07963753 0.12497203 0.07531451 -0.07700155 0.0890329 -0.14000057
0.060255233 -0.0687691 0.121721566 0.14217895 -0.13463596 -0.018977834 0.015908966 -0.091851346
0.04228075 0.1574761 0.05152658 -0.08244423 0.045380037 0.0766156 0.07390536 0.14780334
0.17059697 0.06519542 0.04780398 -0.010287636 0.0587305 -0.05590405 0.15138671 0.0466742
0.13644366 0.010209193 0.08328082 0.16787265 0.12781666 0.07689487 0.0829938 -0.027366055
0.08143683 0.1736911 -0.015346993 0.14831597 0.04967974 -0.12597698 0.050687652 0.15152445
-0.07332911 0.20737821 0.15675557 0.086435646 0.06284504 -0.002295984 -0.060921 0.035529383
0.033022545 0.011014966 0.114362165 0.15536101 0.12152051 0.054989606 0.003017743 -0.20378867
0.12511595 -0.22045682 0.011497085 -0.17285958 0.12089283 0.06408825 -0.057219747 0.19584917
0.0019165829 0.005348837 0.015079251 0.14252438 0.019270765 -0.13277836 0.03977533 -0.0854755
00000000: 1dd8 ffbc 694a 20bd b6a8 023e f227 e33d
00000010: ad48 de3d 9abe 373d 4865 203d 8a3f d63d
00000020: 216a 70bd 29be 7fbc 335c 413b cf70 b83d
00000030: 5eb8 303c 1454 263e 356a 8c38 287e 353d
00000040: d60a e23d 2689 32bd abca f93d aa43 ea3d
00000050: 56d0 4e3d 6376 033e 6916 d1bb f04c 263d
00000060: 9621 0bbd 1e74 b43c eb8f 6b3b 4cf5 e43c
00000070: 83c5 e83d d4fd 1bbd 4df7 6e3c a979 e33d
00000080: 68a0 d6bd 1c02 843c 6fce fa3d 3298 203b
00000090: 8531 b1bc fe67 66bd 0aa3 4b3d 8f72 f13c
000000a0: 6933 c23c da53 2fbe 6953 c83c 04cb c93d
000000b0: 572c 7e3d f067 e73d 5313 d33b 8a80 743c
000000c0: 6310 093d 7b2d ddbd 6c68 c83d 9bdb 26be
000000d0: 6eeb b13d 964f 093e 7d97 58bd 3d9d 303e
000000e0: f9b4 123e cd69 f43d 6893 da3c 1bfb 043e
000000f0: b85e f73a dd61 89bd 4572 a53d fb63 29bd
00000100: e93f 413d e0c7 023e 0ebe b43d 401c 51bd
00000110: a3c9 a93d 5c3d 4abd 4585 3d3d a092 863a
00000120: 4e60 3e3c f6cd 293e 1640 8e3d b7c5 cbbd
00000130: b0b0 233e f64e 983a ec70 6bbd cca1 a13c
00000140: a083 40bd 9363 7b3d db64 99bd 7645 d03c
00000150: 25a9 7f3c 31ee 133d ae25 98bd d777 98bd
00000160: 3d84 693d b00b da3c c98c 823b 5f54 e63d
00000170: 2b19 b13d 3d21 923c 1b61 52bd 1d10 9e3d
00000180: 1736 1b3c e5ed c1bc 85d5 963d 7ccb 1d3e
00000190: 6f5a 1bbd 64f6 993d fdca 3dbd 8138 313d
000001a0: 03b7 9abd b150 38be 38ee 673d e281 58bc
000001b0: 7328 1b3e 5fa6 ab3d 3c10 5bbd 5666 a5bc
000001c0: 6931 81ba 7408 c0bd 10c6 0c3e 9e89 22be
000001d0: e174 8abd 4ac7 d33c 4f06 813c 3354 c6bc
000001e0: 929b 483d 7662 a53d 5143 013e b51b b4bc
000001f0: 744f f7bd 7123 9a3d ee34 013e 7650 573c
00000200: cbae 963d 9956 26be ff24 00be 4ddb cc3d
00000210: a70a d5bd 71f3 8a3d 6842 2b3e 2564 1a3e
00000220: 9abf 22be 4d67 263e da7a dcbd e0ea c9bd
00000230: 33b8 0c3e 6ba4 35be 86c1 433e fbc9 68bd
00000240: f423 d3bd 787a 883d b0ff c5bd af58 f5bd
00000250: 21b5 873d f60a cebd d7d2 21be 3069 253d
00000260: 5357 823d b373 113e 8227 ffbd 7614 1a3e
00000270: a332 293e 66df dc3d a441 e73d 920c 263a
00000280: b308 33be d0eb dc3d 9b6f bbbd 8cb2 6abd
00000290: 790b 44be c7a9 d03d 71e8 d83d 597f 86bd
000002a0: 894f 053e cc49 71bd 41dd 0abe c3a1 983d
000002b0: f2f9 bd3c 1357 23be a237 f2bd 7ace 8abd
000002c0: 46cd 04be 0d8f 083d 0019 a3bd 56f1 ff3d
000002d0: 7e3e 9a3d fdb2 9dbd e256 b63d 4f5c 0fbe
000002e0: 31ce 763d d0d6 8cbd 2849 f93d 5c97 113e
000002f0: 02de 09be 6777 9bbc 8553 823c 8f1c bcbd
00000300: 942e 2d3d 6a41 213e 890d 533d 85d8 a8bd
00000310: 6be0 393d a4e8 9c3d b25b 973d c259 173e
00000320: f9b0 2e3e 2d85 853d 1bce 433d 798d 28bc
00000330: 658f 703d a5fb 64bd 1e05 1b3e 722d 3f3d
00000340: e3b7 0b3e 7644 273c 228f aa3d cfe6 2b3e
00000350: 5fe2 023e 0f7b 9d3d a7f8 a93d c72e e0bc
00000360: 5ac8 a63d 14dc 313e f471 7bbc 24e0 173e
00000370: fc7c 4b3d 1c00 01be db9d 4f3d 3a29 1b3e
00000380: 932d 96bd f45a 543e 8884 203e 2c05 b13d
00000390: e6b4 803d 3878 16bb 4c88 79bd 4287 113d
000003a0: a642 073d 1e78 343c b636 ea3d f516 1f3e
000003b0: bfdf f83d c83c 613d 53c5 453b faad 50be
000003c0: 651e 003e 6fbf 61be 455e 3c3c 1a02 31be
000003d0: a996 f73d b340 833d 415f 6abd af8c 483e
000003e0: da35 fb3a 4c45 af3b f60e 773c e9f1 113e
000003f0: b9dd 9d3c 0df7 07be 75eb 223d c70d afbd

lstm.weight_hh_l0 f4 [256, 64]
0.033199657 -0.08824296 -0.08016841 -0.08351215 -0.11851994 0.08289943 0.1499257 -0.0057626255
0.06437822 0.015664475 -0.004564521 0.018664459 -0.018672608 -0.16851312 0.08069986 0.0137642315
-0.16536216 0.11311052 -0.030260708 -0.06719593 0.1442179 -0.15797468 -0.14475256 0.022316813
0.0124186305 0.14077248 -0.15410207 -0.015268623 0.072546005 0.06653214 0.03671328 -0.062130872
-0.0139584495 0.20763378 -0.07115865 -0.06466549 -0.11448135 -0.0014430321 0.014936922 -0.032303777
0.074830234 -0.047809303 0.046123475 0.02735858 -0.061756633 -0.13314529 0.07058267 0.049379326
0.029312225 -0.044895343 0.06829193 -0.06902613 0.076375894 -0.11373221 0.014850782 -0.036618777
-0.08156156 0.04763446 -0.00055371504 0.011535745 0.0447264 -0.116584234 0.12842473 -0.091417596
0.09338588 -0.052269183 0.0293308 0.094536655 -0.1492839 -0.11478026 -0.035270356 -0.05451907
0.068747245 0.102704875 -0.005983147 0.033454515 0.11723208 0.04129632 0.12966648 0.072779454
0.022602996 -0.026124315 -0.043265834 0.071444675 -0.061132453 -0.12219363 0.002619265 0.067579284
0.15722595 0.08252715 -0.14782794 0.012808403 0.07398172 -0.055927195 -0.060499605 -0.027993174
0.00027361859 -0.058159165 -0.015464808 -0.07999006 -0.11287736 -0.077772945 -0.08127733 -0.13593037
0.11277173 0.025805445 -0.09325629 0.061857045 -0.03397582 0.047329452 -0.118441455 0.18071307
-0.0015415689 -0.13016002 -0.09692406 0.051625032 0.075058945 0.028546711 -0.081993304 -0.15069643
-0.038105115 -0.10067648 -0.07915622 -0.020480148 0.00548924 -0.03464315 0.12359009 0.0007334926
-0.13200444 0.047995042 0.085036226 0.046116557 0.07728331 -0.018200334 0.0301231 0.07384204
-0.11811502 0.06022185 -0.053758204 -0.10393926 -0.051789083 0.123482294 -0.15296303 0.11449009
0.009922052 0.041722126 0.097559005 -0.037255857 -0.007716138 0.03391914 0.077345334 -0.00028264328
0.10577359 0.10795521 -0.016347222 0.087427214 -0.044749476 0.03522066 0.0736019 -0.089239106
0.06256344 -0.09557805 -0.0030692585 -0.06599152 -0.01882784 0.024540922 0.038417567 0.053576604
0.044525545 0.16955963 0.1350128 0.064290434 0.107788004 -0.029079242 0.019731902 -0.022112422
0.0574725 -0.14996912 0.005816357 -0.007247286 0.0035934607 -0.10330692 -0.032469567 -0.04828316
-0.098059356 0.099480644 -0.1063751 -0.0610544 0.04408706 0.02298677 -0.029844332 0.14651819
-0.097109884 -0.029558105 0.087217174 0.012111231 0.006630661 -0.06758796 0.033849172 -0.012533926
0.04076658 -0.034114003 0.01997686 0.09874915 0.009421846 -0.057619527 0.09545149 -0.034731165
-0.018597536 0.11667315 -0.114123255 -0.026612181 -0.0013121549 0.031887997 -0.10138199 -0.072441734
0.08185344 0.112206906 -0.06391047 -0.03994621 -0.011122521 -0.026373582 -0.04280142 -0.06292941
0.12343189 0.16935372 0.0064830175 -0.0022369788 0.007943456 -0.029025063 0.020217154 -0.16619486
-0.09569904 0.08711674 -0.013789147 0.02484719 0.13055503 0.05782276 -0.039214913 0.15637822
-0.0955145 -0.06568877 -0.09275452 -0.03436409 -0.092189535 -0.11670569 0.031229982 0.019837193
0.11635515 0.08849151 0.13022205 -0.0042424304 0.115536064 0.05018417 -0.025897143 -0.007942995
00000000: 5dfc 073d bab8 b4bd 562f a4bd 6b08 abbd
00000010: 95ba f2bd 2dc7 a93d 1f86 193e 68d4 bcbb
00000020: bad8 833d c952 803c fa91 95bb 35e6 983c
00000030: 4cf7 98bc b48e 2cbe f845 a53d 5f83 613c
00000040: b354 29be 7da6 e73d 4ee5 f7bc 059e 89bd
00000050: dbad 133e 1dc4 21be 043a 14be c0d1 b63c
00000060: 8377 4b3c a926 103e efcc 1dbe 3f29 7abc
00000070: 0093 943d 0142 883d aa60 163d f17c 7ebd
00000080: fbb1 64bc f39d 543e a0bb 91bd 576f 84bd
00000090: 3375 eabd 1f24 bdba feb9 743c f750 04bd
000000a0: 9840 993d b0d3 43bd f8eb 3c3d 1a1f e03c
000000b0: 86f4 7cbd 3d57 08be a68d 903d fa41 4a3d
000000c0: 3120 f03c 2ee4 37bd a4dc 8b3d 925d 8dbd
000000d0: f76a 9c3d 6fec e8bd b250 733c 92fd 15bd
000000e0: bf09 a7bd 5a1c 433d 3027 11ba 6c00 3d3c
000000f0: 0833 373d b7c3 eebd c681 033e 2639 bbbd
00000100: 1941 bf3d 3618 56bd 2547 f03c 6f9c c13d
00000110: e1dd 18be ea11 ebbd a677 10bd 634f 5fbd
00000120: 5bcb 8c3d ef56 d23d 460e c4bb 9a07 093d
00000130: 5f17 f03d 5426 293d 4ac7 043e 650d 953d
00000140: eb29 b93c a902 d6bc 8437 31bd 9651 923d
00000150: 0666 7abd a740 fabd faa7 2b3b 0267 8a3d
00000160: d7ff 203e ff03 a93d 3560 17be 56da 513c
00000170: ba83 973d ea13 65bd 6fce 77bd f151 e5bc
00000180: 7774 8f39 4e38 6ebd 1b60 7dbc d4d1 a3bd
00000190: 3f2c e7bd 6c47 9fbd bb74 a6bd 5531 0bbe
000001a0: ddf4 e63d f165 d33c 27fd bebd d05d 7d3d
000001b0: 3b2a 0bbd 87dc 413d 6f91 f2bd d90c 393e
000001c0: 780e caba ab48 05be 1f80 c6bd c574 533d
000001d0: 81b8 993d cbda e93c 1bec a7bd 2a50 1abe
000001e0: 1c14 1cbd 782f cebd a81c a2bd fcc5 a7bc
000001f0: 15df b33b fae5 0dbd cd1c fd3d db47 403a
00000200: 2c2c 07be 7396 443d 7927 ae3d b7e4 3c3d
00000210: b646 9e3d de18 95bc b8c4 f63c 7f3a 973d
00000220: 4ae6 f1bd 30ab 763d 9031 5cbd 1bde d4bd
00000230: ca20 54bd 49e4 fc3d 57a2 1cbe c879 ea3d
00000240: 1a90 223c d2e4 2a3d 04cd c73d 9999 18bd
00000250: a8d7 fcbb ccee 0a3d 3b67 9e3d bd2f 94b9
00000260: d39f d83d 9f17 dd3d 9cea 85bc 0a0d b33d
00000270: 3a4b 37bd 8a43 103d 98bc 963d fec2 b6bd
00000280: 4321 803d 6dbe c3bd 9d25 49bb 9026 87bd
00000290: d83c 9abc 0b0a c93c bd5b 1d3d 2473 5b3d
000002a0: 6b60 363d 0aa1 2d3e cc40 0a3e b4aa 833d
000002b0: f5bf dc3d 9737 eebc cca4 a13c 1c25 b5bc
000002c0: 4968 6b3d 8191 19be 2497 be3b a47a edbb
000002d0: 4480 6b3b 9492 d3bd cffe 04bd 90c4 45bd
000002e0: 58d3 c8bd 82bc cb3d 30db d9bd 2e14 7abd
000002f0: a294 343d c04e bc3c 1a7c f4bc dd08 163e
00000300: 8ce1 c6bd d723 f2bc eb9e b23d 2f6e 463c
00000310: 0446 d93b 8e6b 8abd 6ea5 0a3d 195b 4dbc
00000320: dbfa 263d 20bb 0bbd 83a6 a33c ff3c ca3d
00000330: 165e 1a3c 7402 6cbd 127c c33d 4442 0ebd
00000340: dc59 98bc 55f2 ee3d 74b9 e9bd ca01 dabc
00000350: 9dfc abba fd9c 023d 5ca1 cfbd 555c 94bd
00000360: c7a2 a73d bccc e53d 7ee3 82bd a39e 23bd
00000370: 3c3b 36bc 690d d8bc 8b50 2fbd 22e1 80bd
00000380: dcc9 fc3d 106b 2d3e 7e6f d43b 479a 12bb
00000390: 4525 023c f8c5 edbc 729e a53c fc2e 2abe
000003a0: dcfd c3bd 436a b23d e0eb 61bc 568c cb3c
000003b0: 38b0 053e 8fd7 6c3d d19f 20bd 9d21 203e
000003c0: 1b9d c3bd d587 86bd 15f6 bdbd 5cc1 0cbd
000003d0: decd bcbd 6503 efbd 05d6 ff3c 9c81 a23c
000003e0: 9c4b ee3d 093b b53d ee58 053e 1604 8bbb
000003f0: 2c9e ec3d eb8d 4d3d 3f26 d4bc 5623 02bc

lstm.bias_ih_l0 f4 [256]
-0.08607407 -0.044182647 0.091045156 0.12780192 -0.03132187 0.07685638 0.039060388 0.04440685
0.1350298 0.1336696 0.10958705 -0.113281816 0.12393359 0.18033028 0.18035725 0.11788316
0.042374454 0.08023721 -0.020458516 0.03388535 0.0006299708 0.08131492 -0.06210259 0.13944386
0.045373026 0.09383327 0.04584478 0.014387352 0.11370386 0.057842977 -0.06418949 -0.050436333
0.07913279 0.09178369 0.01912553 0.014314678 0.027102206 0.04381829 0.14934379 0.07922885
-0.023767164 0.033667095 -0.046302184 0.015868329 0.06082246 0.016415868 0.028205924 -0.031069167
-0.059145015 0.0056412974 -0.00012658349 -0.05560095 -0.10233855 -0.072601534 0.07143021 -0.06480542
0.12880631 -0.07063157 0.047996055 0.08240453 0.07737149 -0.08562896 0.06456254 0.13331406
-0.0821846 -0.05321841 -0.07984101 0.06260625 0.027204266 -0.027872715 0.096349366 0.11843321
0.1162411 0.07614719 -0.010910379 -0.027779926 -0.048601076 0.022761619 0.033044305 -0.09528264
0.02754275 -0.05714594 0.071958534 0.035670385 -0.08215448 0.08490545 0.10341233 0.01876795
-0.103223346 0.15201046 -0.07421065 0.101580195 0.057217203 -0.09009602 -0.033916205 0.13614707
0.02448359 -0.05465971 0.09931683 0.032556113 0.080785714 -0.045406222 -0.053207606 0.010749881
-0.043262307 0.059712354 0.08687658 -0.076965086 0.09354719 0.028844858 0.1471981 -0.04496864
-0.03005174 -0.041344054 -0.10434396 -0.09964276 -0.009160771 -0.032841306 0.10083939 0.01768736
0.09930111 -0.07298211 0.057153825 0.030157905 0.11821946 -0.096678786 -0.008820026 -0.0056523997
-0.11521868 -0.11738043 -0.006927036 0.07257124 -0.13943388 -0.09703753 0.023862706 -0.11306372
0.013579289 0.11096504 0.080055416 0.06563936 0.031781353 -0.05704282 0.0142503055 0.06400348
0.02311869 -0.021476768 0.11261763 -0.018734258 0.13540167 -0.10145913 -0.057113945 0.030163746
-0.058118563 0.09314364 0.013411872 -0.045516685 0.098261625 -0.11726175 0.13538398 0.10843872
0.13677822 0.029746179 -0.12614521 -0.08825141 0.038553234 0.016063476 -0.059333708 -0.0723473
-0.02247235 0.15156113 -0.014417613 -0.03887416 0.15129147 -0.06389159 -0.04855901 0.013594202
0.07518492 -0.108605295 0.018312596 -0.007883878 0.062612556 -0.040330593 -0.048708413 -0.108536154
-0.03285977 0.09229778 0.10080369 -0.038860597 -0.04962403 -0.09294899 0.0473018 0.04859563
-0.07228341 0.10135768 0.023964554 0.10778802 0.10153503 0.074594535 0.041027002 0.065380774
-0.017541388 0.11043064 0.02387164 0.0044564637 0.017149728 0.049988504 0.15307413 -0.0055652685
0.068241976 0.08478975 -0.1091416 -0.0792442 0.045324653 -0.063814156 -0.07276964 0.14176676
-0.052857373 0.116006754 -0.053027518 -0.027824538 0.096615866 0.07727346 0.16925906 0.0372355
0.14186479 -0.037289307 -0.057212636 0.056068387 0.19752328 -0.007064299 0.09225429 -0.08967363
-0.02492543 0.010970314 -0.0043013417 0.030935353 0.108519115 -0.018812016 -0.013434402 -0.053944334
0.014643135 0.072317556 0.10212492 0.066974826 -0.019725394 0.037449133 0.10574103 -0.025846528
-0.052697368 0.017087625 -0.021345366 0.12791811 0.0026944338 0.081823245 0.15024246 0.09181008
00000000: 9a47 b0bd ddf8 34bd e275 ba3d 82de 023e
00000010: 5c4b 00bd e166 9d3d c9fd 1f3d f5e3 353d
00000020: 4045 0a3e afe0 083e 2d6f e03d 4c00 e8bd
00000030: e5d0 fd3d 80a8 383e 92af 383e ba6c f13d
00000040: d690 2d3d 6853 a43d 9e98 a7bc 5dcb 0a3d
00000050: a024 253a 7088 a63d 495f 7ebd 5fca 0e3e
00000060: 11d9 393d a82b c03d bcc7 3b3d eeb8 6b3c
00000070: 92dd e83d c2ec 6c3d c875 83bd 5496 4ebd
00000080: 5f10 a23d 16f9 bb3d 25ad 9c3c 1c88 6a3c
00000090: 7205 de3c cf7a 333d 94ed 183e bc42 a23d
000000a0: 5bb3 c2bc 82e6 093d 5ca7 3dbd 4cfe 813c
000000b0: f920 793d 927a 863c 1c10 e73c c484 febc
000000c0: 0b42 72bd a2da b83b 7fbb 04b9 d2bd 63bd
000000d0: e096 d1bd 1db0 94bd 004a 923d b4b8 84bd
000000e0: cde5 033e 49a7 90bd 8397 443d b5c3 a83d
000000f0: f274 9e3d 3c5e afbd 5d39 843d 7b83 083e
00000100: 6650 a8bd 8cfb 59bd af83 a3bd b537 803d
00000110: 7bdb de3c 5255 e4bc d152 c53d 1c8d f23d
00000120: d00f ee3d 0ff3 9b3d 72c1 32bc ba92 e3bc
00000130: ec11 47bd 9376 ba3c 7759 073d 8b23 c3bd
00000140: 55a1 e13c dc11 6abd ff5e 933d 1c1b 123d
00000150: 9c40 a8bd e9e2 ad3d d8c9 d33d 3ebf 993c
00000160: c366 d3bd a1a8 1b3e c1fb 97bd 4709 d03d
00000170: 965c 6a3d 4384 b8bd b8eb 0abd 236a 0b3e
00000180: cf91 c83c dce2 5fbd 9f66 cb3d 8f59 053d
00000190: fb72 a53d e0fb 39bd 38f0 59bd 4520 303c
000001a0: d133 31bd f194 743d 59ec b13d df9f 9dbd
000001b0: ab95 bf3d 0d4c ec3c 19bb 163e 0931 38bd
000001c0: 112f f6bc 6258 29bd 49b2 d5bd 8111 ccbd
000001d0: 0f17 16bc 9b84 06bd e284 ce3d 15e5 903c
000001e0: 615e cb3d a577 95bd 211a 6a3d b60d f73c
000001f0: 0b1d f23d 87ff c5bd df81 10bc c437 b9bb
00000200: c5f7 ebbd 2765 f0bd 31fc e2bb 3ba0 943d
00000210: c1c7 0ebe 9dbb c6bd b97b c33c f48d e7bd
00000220: ab7b 5e3c a441 e33d 18f4 a33d ee6d 863d
00000230: 2a2d 023d bba5 69bd 1d7a 693c 4214 833d
00000240: 6863 bd3c 0cf0 afbc 12a4 e63d 9678 99bc
00000250: bca6 0a3e cec9 cfbd 50f0 69bd f619 f73c
00000260: bb0d 6ebd 18c2 be3d 78bd 5b3c b46f 3abd
00000270: 643d c93d ee26 f0bd 19a2 0a3e 1f15 de3d
00000280: 970f 0c3e 42ae f33c 362c 01be 28bd b4bd
00000290: ffe9 1d3d 8d97 833c e707 73bd d22a 94bd
000002a0: ef17 b8bc d732 1b3e da37 6cbc 833a 1fbd
000002b0: 27ec 1a3e 98d9 82bd d0e5 46bd 37ba 5e3c
000002c0: 8dfa 993d 746c debd 4c04 963c 622b 01bc
000002d0: 033b 803d b131 25bd 7982 47bd 3448 debd
000002e0: f797 06bd 9e06 bd3d 2a72 ce3d 4a2c 1fbd
000002f0: 9142 4bbd 0a5c bebd 88bf 413d 360c 473d
00000300: 5309 94bd 9e94 cf3d 5051 c43c f7bf dc3d
00000310: 99f1 cf3d 05c5 983d ee0b 283d 5be6 853d
00000320: f5b2 8fbc 7629 e23d 758e c33c 8707 923b
00000330: 967d 8c3c bfc0 4c3d 77bf 1c3e db5c b6bb
00000340: 73c2 8b3d 40a6 ad3d a285 dfbd c84a a2bd
00000350: 58a6 393d ffb0 82bd 4008 95bd 4e2b 113e
00000360: f980 58bd f394 ed3d 6233 59bd 49f0 e3bc
00000370: 8ade c53d 8c41 9e3d 3f52 2d3e 4084 183d
00000380: 0145 113e acbc 18bd cc57 6abd f7a7 653d
00000390: 8b43 4a3e a37b e7bb d1ef bc3d cfa6 b7bd
000003a0: 6a30 ccbc d5bc 333c 45f2 8cbb 236c fd3c
000003b0: 453f de3d a81b 9abc f71b 5cbc bcf4 5cbd
000003c0: c2e9 6f3c 3a1b 943d df26 d13d 192a 893d
000003d0: 2697 a1bc 4364 193d c18e d83d 19bc d3bc
000003e0: 32d9 57bd 59fb 8b3c 7adc aebc f7fc 023e
000003f0: 1995 303b f292 a73d 29d9 193e ec06 bc3d

lstm.bias_hh_l0 f4 [256]
-0.101790026 -0.03371283 0.14790301 -0.107965976 -0.091953635 0.04328495 0.0032594486 0.021314846
0.026242252 0.04206765 0.06264184 -0.10004501 0.073077455 0.19945574 0.026701538 0.09465649
0.02135394 0.06870617 0.03987914 0.01931604 -0.025141409 -0.051009193 0.07098347 0.07033791
0.07489651 -0.06527534 0.128814 -0.024551852 0.014093865 -0.06327349 0.03332691 0.03143533
0.038385835 0.174522 -0.017424965 0.07980266 0.060763378 0.15451916 -0.021810316 -0.09205709
0.038673658 -0.016819024 -0.03086243 0.1079082 0.022846352 0.020935122 0.122461595 0.030166732
0.00435692 0.003169599 0.069951646 -0.07083417 -0.08493195 -0.0049153054 0.0049883174 -0.038227078
0.061812773 0.020060377 -0.07121533 -0.0041554817 0.1326418 -0.09280767 -0.051701855 0.015676696
0.13351355 0.11288744 0.018650448 0.06337968 -0.09417937 0.1281667 -0.034789346 -0.053736843
0.091988765 0.036073707 -0.09445903 -0.085961215 0.09592729 -0.0042734505 0.0061395597 0.12158816
0.15252213 0.070963986 0.07829744 0.04830806 0.054896366 0.06210856 0.020806953 0.015817197
0.13208424 -0.011760072 -0.08209801 0.036517408 0.13584328 -0.052005935 0.013697595 -0.08368725
0.035114814 -0.10499857 -0.03244325 0.040992893 -0.016380074 0.061940975 0.12166726 -0.019640842
0.09652285 0.15096997 -0.002673724 -0.07608299 0.14948371 0.018511405 0.055990864 0.14024192
0.033839725 -0.0039359704 0.044545863 0.1059298 -0.08855834 -0.06474241 0.13573739 -0.03431499
0.086441316 -0.039517704 -0.028891964 -0.045495413 0.06114307 -0.05951346 0.1283987 0.027059432
0.0072151106 0.046510927 0.10845102 0.061442558 -0.15124075 -0.02909032 -0.11319734 0.102128945
-0.118183985 -0.0076499796 -0.038428787 -0.035003114 0.124537334 0.015685799 -0.090679616 -0.0464573
-0.009088309 -0.10320344 0.02888757 -0.118731245 -0.041234888 -0.07889606 0.073276386 -0.121915184
0.110195845 0.023914576 -0.09485831 -0.020701274 -0.092357896 -0.12989376 -0.07005144 0.058823463
0.077378064 -0.008706695 -0.0924288 -0.097869135 -0.025004158 -0.049174275 -0.09394455 0.03297079
0.10559145 0.13536255 0.057887167 0.125768 0.060561124 0.07822637 -0.04118259 0.0257877
0.017989159 -0.1611127 -0.055940263 -0.10045972 -0.12060995 -0.023876436 0.10051244 -0.13977203
0.1416027 -0.06900212 -0.07875588 0.017258953 0.09037947 0.001720666 0.15190943 0.05968885
-0.04097348 0.11705798 0.09305331 0.116189934 -0.0068415958 0.14788364 0.017889395 0.006235141
0.008875991 0.0069359206 0.09773309 -0.007126133 0.025212843 0.18596368 -0.012778159 0.1157767
-0.0070602153 0.02831835 -0.006859229 0.0061119846 0.012559297 0.09020066 0.08153421 0.11668969
0.101437785 0.16170499 0.028160244 0.078564465 -0.07402855 0.007773817 0.084186986 0.142452
-0.028729878 -0.021841561 0.0038545793 -0.04703985 0.09266002 0.078276105 -0.021759799 0.0051873536
0.031709302 0.045436874 0.15669754 0.015845457 -0.014660778 0.008219216 0.025287258 0.14592458
0.14648652 0.062295802 -0.0075650224 0.004243786 0.08893523 0.066748664 0.07637574 0.109762065
-0.0556762 -0.08524877 0.18477248 0.039644856 0.14468427 0.09476148 -0.047116548 0.10946959
00000000: 4a77 d0bd 7716 0abd e373 173e 441d ddbd
00000010: 3052 bcbd 8f4b 313d 799c 553b 799c ae3c
00000020: fef9 d63c 214f 2c3d 5d4a 803d 66e4 ccbd
00000030: a2a9 953d 203e 4c3e 2fbd da3c 43db c13d
00000040: 75ee ae3c d2b5 8c3d 4f58 233d ac3c 9e3c
00000050: 5bf5 cdbc 04ef 50bd c85f 913d 520d 903d
00000060: 5763 993d 14af 85bd d1e7 033e f720 c9bc
00000070: f4e9 663c 8895 81bd cc81 083d 55c2 003d
00000080: 773a 1d3d e5b5 323e cdbe 8ebc 946f a33d
00000090: 05e3 783d 453a 1e3e 8cab b2bc 6d88 bcbd
000000a0: 4568 1e3d 0dc8 89bc 35d3 fcbc f9fe dc3d
000000b0: 4628 bb3c 2280 ab3c 25cd fa3d 3920 f73c
000000c0: 7ec4 8e3b 0cb9 4f3b cf42 8f3d 8111 91bd
000000d0: cdf0 adbd 9210 a1bb 0a75 a33b ff93 1cbd
000000e0: 642f 7d3d a955 a43c 58d9 91bd b52a 88bb
000000f0: 41d3 073e f311 bebd 53c5 53bd 6a6c 803c
00000100: c7b7 083e 8831 e73d d3c8 983c 35cd 813d
00000110: 1de1 c0bd 223e 033e 467f 0ebd 2a1b 5cbd
00000120: 9b64 bc3d 06c2 133d bc73 c1bd 6f0c b0bd
00000130: 8775 c43d 4d08 8cbb 5c2e c93b 3703 f93d
00000140: c32e 1c3e 9155 913d 695a a03d acde 453d
00000150: 03db 603d 8c65 7e3d 5873 aa3c 1193 813c
00000160: 1741 073e 51ad 40bc 0023 a8bd 4793 153d
00000170: 801a 0b3e 2d04 55bd e16b 603c 3964 abbd
00000180: 8dd4 0f3d 7e09 d7bd 37e3 04bd 2ae8 273d
00000190: 812f 86bc d2b5 7d3d af2c f93d d5e5 a0bc
000001a0: c6ad c53d df97 1a3e a539 2fbb 66d1 9bbd
000001b0: 4212 193e 3ba5 973c ad56 653d 949b 0f3e
000001c0: 869b 0a3d 50f9 80bb b975 363d b9f1 d83d
000001d0: 135e b5bd ab97 84bd befe 0a3e e08d 0cbd
000001e0: 2508 b13d 51dd 21bd d7ae ecbc 6659 3abd
000001f0: 2871 7a3d 63c4 73bd f37a 033e beab dd3c
00000200: bc6c ec3b 3e82 3e3d 921b de3d 31ab 7b3d
00000210: dbde 1abe d34e eebc 02d4 e7bd fb28 d13d
00000220: 720a f2bd aeac fabb 8167 1dbd 6d5f 0fbd
00000230: 6e0d ff3d 817f 803c 3cb6 b9bd 034a 3ebd
00000240: 21e7 14bc 535c d3bd a0a5 ec3c 5e29 f3bd
00000250: eae5 28bd 4294 a1bd ee11 963d abae f9bd
00000260: 5cae e13d 80e8 c33c 1345 c2bd b895 a9bc
00000270: 2326 bdbd df02 05be 2177 8fbd dff0 703d
00000280: 6478 9e3d 87a6 0ebc 504b bdbd 9d6f c8bd
00000290: 85d5 ccbc f76a 49bd 0066 c0bd 610c 073d
000002a0: 5540 d83d 7b9c 0a3e 181b 6d3d 54c9 003e
000002b0: f10e 783d 2635 a03d 13af 28bd ba40 d33c
000002c0: 005e 933c bafa 24be 9e21 65bd d3bd cdbd
000002d0: 5902 f7bd 8498 c3bc 77d9 cd3d 6620 0fbe
000002e0: 4c00 113e fc50 8dbd c34a a1bd a662 8d3c
000002f0: df18 b93d f887 e13a 258e 1b3e 4c7c 743d
00000300: cfd3 27bd 18bc ef3d bc92 be3d fdf4 ed3d
00000310: 772f e0bb cf6e 173e c88c 923c 2750 cc3b
00000320: 9b6c 113c b846 e33b 4928 c83d 5682 e9bb
00000330: 2a8b ce3c 436d 3e3e 7c5b 51bc 561c ed3d
00000340: 6159 e7bb e2fb e73c 62c3 e0bb 0b47 c83b
00000350: 82c5 4d3c 20bb b83d 68fb a63d 01fb ee3d
00000360: 9dbe cf3d fe95 253e 50b0 e63c 68e6 a03d
00000370: 489c 97bd 81bb fe3b 3a6a ac3d f0de 113e
00000380: ec5a ebbc 13ed b2bc 1c9d 7c3b dcac 40bd
00000390: 89c4 bd3d 394f a03d 9b41 b2bc adfa a93b
000003a0: 9de1 013d 041c 3a3d 5275 203e 55ce 813c
000003b0: c333 70bc e4a9 063c 3927 cf3c 416d 153e
000003c0: 9000 163e e229 7f3d 02e4 f7bb 750f 8b3b
000003d0: ad23 b63d 86b3 883d e26a 9c3d efca e03d
000003e0: ba0c 64bd e896 aebd ff34 3d3e a562 223d
000003f0: 1d28 143e 4f12 c23d 48fd 40bd 9831 e03d

fc.weight f4 [1, 64]
-0.06326961 -0.09489706 -0.14538565 -0.070011705 -0.002526785 0.05089408 0.1052836 0.2116186
-0.06436953 0.10233076 -0.020653553 0.047815293 0.08484175 -0.15810458 0.18462919 -0.18773901
-0.1284574 0.07158782 -0.041355032 -0.05023107 0.14805338 -0.021338023 -0.19109628 0.1258989
0.048344 0.13792464 -0.089952946 0.15511844 0.17014344 0.052076202 0.1324629 0.17283829
-0.19521092 0.1232912 -0.123868525 -0.15928614 -0.18277626 0.15702808 0.0853635 0.07016246
0.03577384 -0.114950195 -0.15471992 0.13092582 0.10121956 -0.18374066 -0.10039486 -0.18410502
-0.17368719 0.122800454 -0.099107325 0.0712597 -0.0009987835 -0.035436716 0.14265135 -0.048668146
0.16550067 0.05771284 0.16292977 0.19796407 -0.1769888 0.070726834 0.117134854 -0.08711496
00000000: 7f93 81bd 6459 c2bd fadf 14be 4c62 8fbd
00000010: 6b98 25bb 5076 503d ee9e d73d 8cb2 583e
00000020: 2cd4 83bd ca92 d13d a431 a9bc f8d9 433d
00000030: 83c1 ad3d 2be6 21be 6f0f 3d3e a83e 40be
00000040: 568a 03be a39c 923d e563 29bd 18bf 4dbd
00000050: 4e9b 173e 14cd aebc beae 43be a4eb 003e
00000060: 5c04 463d 1e3c 0d3e 4039 b8bd 5ed7 1e3e
00000070: 153a 2e3e db4d 553d 5ba4 073e 85fc 303e
00000080: 5fe5 47be 1980 fc3d c8ae fdbd e81b 23be
00000090: b329 3bbe f8cb 203e 0fd3 ae3d 56b1 8f3d
000000a0: 9787 123d 026b ebbd e66e 1ebe 6b11 063e
000000b0: 334c cf3d 8326 3cbe d29b cdbd 0786 3cbe
000000c0: 0edb 31be ce7e fb3d c8f8 cabd 9bf0 913d
000000d0: 9de9 82ba 1726 11bd 3213 123e 4058 47bd
000000e0: 0279 293e 4d64 6c3d 10d7 263e 18b7 4a3e
000000f0: 8d3c 35be 3bd9 903d 66e4 ef3d 5469 b2bd
